src/model_weights.pth (torch, 406436 bytes, 18 tensors)

lstm.weight_ih_l0 f4 [200, 45]
-0.0657313 -0.03242846 0.050245043 -0.02728706 0.035815064 0.055550527 -0.11990983 -0.09180751
-0.14369427 -0.087703004 -0.09970929 -0.13605638 0.08800605 -0.078656755 0.13633749 -0.12276055
-0.06474749 -0.055902097 -0.09759251 -0.12358048 -0.098933764 0.08617003 -0.08292495 -0.12806723
0.007232055 0.06320627 -0.08645695 -0.12454818 -0.13106102 -0.08161306 -0.11787941 -0.07071832
-0.12586224 -0.11698001 0.018617583 -0.032154012 0.046383504 0.089770675 -0.0018582878 0.019145755
0.084314875 -0.08242851 0.12974133 -0.0448762 0.1098196 0.0016701496 0.14678366 -0.109813355
0.10788887 0.07012925 0.11716932 -0.09597706 -0.035558365 -0.03533052 0.1215564 0.0021849673
-0.089073874 0.059965417 -0.054481596 0.11234012 0.05592115 -0.033908386 -0.122374505 -0.13414912
-0.06819529 0.08149679 0.11151206 -0.044487454 0.1585404 -0.071927376 -0.060938694 0.015074652
-0.00023535147 0.15056792 0.022255173 0.047577545 -0.10320984 -0.09423306 0.14929114 -0.09429645
0.09307885 -0.057749342 -0.048807193 0.11591566 -0.00077310245 0.11775026 0.042355787 -0.0745014
0.05973847 -0.13594615 0.0604219 0.030437738 -0.05277834 -0.10481271 0.02479273 0.08398394
0.003649891 -0.015009254 0.040875554 0.017080143 0.10436356 -0.10751277 -0.015395179 0.12151609
-0.040455416 -0.005588606 0.009353057 0.068419546 -0.055597194 0.042275548 -0.1257069 0.11808838
0.13873674 0.078833774 -0.10958742 -0.10501881 0.1302623 -0.043088578 -0.02766592 -0.021049246
-0.052304678 -0.01932177 -0.0012385501 0.11714648 0.089572296 0.08172397 0.09122831 -0.05160302
0.09114075 0.05576992 0.13730024 -0.10241508 0.017215697 -0.011543047 -0.014082443 0.090880044
-0.13582578 0.056341898 0.01079079 0.12947488 0.048378106 0.008630713 0.11045211 0.058156356
0.13743758 -0.076532826 0.02434991 -0.008571187 0.019969355 0.07297123 0.018514095 0.06151632
0.040005133 0.037026882 0.099444486 -0.0011275421 -0.11391107 -0.023355054 -0.057791043 0.024837917
-0.035237283 0.09347966 -0.116004705 -0.053882223 0.10698687 -0.0039661163 0.07949469 -0.12386527
-0.112843156 0.12469292 0.072985835 0.009249402 -0.004328073 0.04400328 -0.054862577 -0.048654474
-0.0074159256 0.07469521 0.13865928 0.048951585 0.1205286 0.0491537 0.08500159 -0.13224617
0.123849615 -0.03947825 0.072739124 0.006704798 -0.06121535 -0.012470885 -0.0075306008 0.039345697
-0.12906373 -0.0009502727 0.03878882 -0.104963645 0.003929225 -0.014635292 0.13383152 0.079902284
-0.09691478 0.13254526 0.067456365 0.02777733 0.1440728 -0.052641362 0.08524092 -0.090277836
0.024557965 -0.11647952 0.116927676 -0.10363916 0.09800643 -0.08927485 0.083173275 0.006420306
-0.04198676 -0.08941611 0.10310365 0.11695869 -0.16345847 -0.10100166 0.090816416 0.021936998
0.12704343 -0.028470237 -0.0945672 0.14967652 -0.009108674 0.032620065 -0.12918165 0.0003087526
-0.049888346 0.095845595 -0.035651024 0.028243426 -0.09099198 -0.12629385 -0.08770749 0.0042968923
-0.022020563 -0.13167043 -0.030031722 0.012602106 0.04396453 0.069594264 0.09901621 0.04228289
0.08729115 0.109557845 -0.10272296 0.014807802 0.026974525 -0.078439325 0.057268128 -0.033108406
00000000: 229e 86bd b4d3 04bd bfcd 4d3d 1d89 dfbc
00000010: d1b2 123d f388 633d 4993 f5bd 9305 bcbd
00000020: 9724 13be a29d b3bd 6234 ccbd 5d52 0bbe
00000030: 843c b43d cb16 a1bd 0e9c 0b3e e269 fbbd
00000040: 559a 84bd 99f9 64bd 95de c7bd c317 fdbd
00000050: c99d cabd ea79 b03d 8ed4 a9bd 0e24 03be
00000060: e0fa ec3b 4a72 813d 5710 b1bd 1e13 ffbd
00000070: dc34 06be bf24 a7bd c36a f1bd c4d4 90bd
00000080: 08e2 00be 3793 efbd e783 983c edb3 03bd
00000090: a1fc 3d3d b0d9 b73d cb91 f3ba 8fd7 9c3c
000000a0: 47ad ac3d 47d0 a8bd e9da 043e 1bd0 37bd
000000b0: 19e9 e03d ece8 da3a 754e 163e d3e5 e0bd
000000c0: d7f4 dc3d ed9f 8f3d 78f6 ef3d 9f8f c4bd
000000d0: a6a5 11bd bcb6 10bd 90f2 f83d ab31 0f3b
000000e0: 5d6c b6bd 4c9e 753d 1828 5fbd 9412 e63d
000000f0: 930d 653d 85e3 0abd 7c9f fabd 635e 09be
00000100: f9a9 8bbd cae7 a63d 6f60 e43d 7a38 36bd
00000110: 6a58 223e a94e 93bd da9a 79bd acfb 763c
00000120: aec8 76b9 7a2e 1a3e 7b50 b63c ace0 423d
00000130: ae5f d3bd 43fd c0bd c7df 183e 7f1e c1bd
00000140: 20a0 be3d 938a 6cbd 0dea 47bd 3165 ed3d
00000150: 07aa 4aba 0c27 f13d 437d 2d3d 3194 98bd
00000160: 53b0 743d 7835 0bbe f47c 773d 9058 f93c
00000170: 1a2e 58bd 0ca8 d6bd 201a cb3c c6ff ab3d
00000180: 0233 6f3b 60e9 75bc 206d 273d a8eb 8b3c
00000190: 90bc d53d a82f dcbd 103c 7cbc 6edd f83d
000001a0: 94b4 25bd a020 b7bb 903d 193c 8c1f 8c3d
000001b0: e2b9 63bd 2029 2d3d 4fb9 00be 52d8 f13d
000001c0: 0111 0e3e 9a73 a13d 5f6f e0bd 1a14 d7bd
000001d0: 7b63 053e a67d 30bd a4a3 e2bc 786f acbc
000001e0: 6e3d 56bd b048 9ebc d856 a2ba 7eea ef3d
000001f0: ae71 b73d e65e a73d e8d5 ba3d b05d 53bd
00000200: 00a8 ba3d 006f 643d 6f98 0c3e ffbe d1bd
00000210: ef07 8d3c 0c1f 3dbc 0cba 66bc 511f ba3d
00000220: ea15 0bbe c3c6 663d dbcb 303c 1095 043e
00000230: 1f28 463d d667 0d3c b734 e23d 5c35 6e3d
00000240: 70bc 0c3e 3ebd 9cbd 7679 c73c 2a6e 0cbc
00000250: c696 a33c f171 953d dfaa 973c 89f8 7b3d
00000260: 6cdc 233d 80a9 173d 8da9 cb3d 09ca 93ba
00000270: 354a e9bd 1953 bfbc 4db6 6cbd e378 cb3c
00000280: f854 10bd 4472 bf3d e093 edbd 9bb3 5cbd
00000290: ef1b db3d 32f6 81bb 1dce a23d 13ad fdbd
000002a0: 501a e7bd 005f ff3d 9979 953d ce8a 173c
000002b0: 82d2 8dbb c93c 343d 95b7 60bd ea49 47bd
000002c0: 4b01 f3bb cdf9 983d b3fc 0d3e 7581 483d
000002d0: b3d7 f63d 6455 493d 5015 ae3d 8a6b 07be
000002e0: dea4 fd3d f2b3 21bd 40f8 943d ecb3 db3b
000002f0: f2bc 7abd af52 4cbc 42c3 f6bb f428 213d
00000300: 4829 04be b91b 79ba 07e1 1e3d 2ef7 d6bd
00000310: bac0 803b ddc8 6fbc 210b 093e cfa3 a33d
00000320: 427b c6bd f2b9 073e 9026 8a3d 488d e33c
00000330: d287 133e 789e 57bd cb92 ae3d 96e3 b8bd
00000340: c92d c93c d18c eebd c777 ef3d c540 d4bd
00000350: 98b7 c83d bcd5 b6bd c056 aa3d 6e61 d23b
00000360: 4ffa 2bbd cb1f b7bd 0228 d33d 0a88 ef3d
00000370: a861 27be f5d9 cebd f5fd b93d 38b5 b33c
00000380: ac17 023e 6a3a e9bc 73ac c1bd cd44 193e
00000390: 8c3c 15bc 9e9c 053d 3248 04be 13e0 a139
000003a0: b957 4cbd b24a c43d cf06 12bd c25e e73c
000003b0: 015a babd 2d53 01be fc9f b3bd f2cc 8c3b
000003c0: 7864 b4bc 9dd4 06be 1605 f6bc 1079 4e3c
000003d0: 2714 343d 7087 8e3d 03c9 ca3d d330 2d3d
000003e0: b4c5 b23d dd5f e03d 6a60 d2bd 6c9c 723c
000003f0: aef9 dc3c cca4 a0bd fc91 6a3d ae9c 07bd

lstm.weight_hh_l0 f4 [200, 50]
-0.06151429 0.09571703 -0.02039983 -0.0048596133 0.12203987 0.078826696 -0.03796425 -0.11654114
-0.07158943 0.10673295 -0.030598797 0.103332475 0.049764335 0.11970415 0.087641604 0.10470007
0.07396306 0.05996832 0.07420172 0.010772705 0.02840853 0.04377894 0.06134189 0.107901655
0.124163195 -0.047698572 -0.0572119 -0.009889394 -0.12618858 -0.04451182 0.026015088 -0.058907166
0.008029655 -0.049971502 -0.06994227 0.039394975 -0.035580784 0.121053174 -0.09355698 0.018795092
-0.10414766 0.04654355 -0.013100298 0.008784649 -0.13813548 -0.080726 -0.0321735 0.018851452
0.1000416 -0.078008905 0.005886227 0.06361075 -0.013717468 0.12320017 -0.14623381 0.047651455
0.098766 -0.15108256 0.017751157 -0.12956841 0.026700929 0.091163434 0.11576964 0.055391226
0.04158375 0.12710801 0.055146556 -0.11074087 -0.05467364 0.016942834 -0.00032549954 -0.0786918
-0.12305798 0.07566546 0.13571954 0.0042172074 -0.05646284 -0.0019877255 -0.026441071 -0.07569486
-0.09550015 0.051476322 0.07147662 0.12505418 -0.08608343 0.09293744 0.097303696 0.0042809076
0.021783901 0.14999485 -0.038697034 0.14870693 0.047904592 -0.08926395 -0.01683849 -0.042928107
-0.058105763 0.1331669 -0.012137221 0.086597934 0.06272344 -0.07987176 -0.05728376 0.1282403
-0.0692045 0.13097943 0.011732459 0.039593488 0.1244161 0.08578068 0.07161282 -0.0066732317
-0.13697588 0.052977934 0.030607551 0.1231855 -0.10395005 -0.111615635 -0.11417419 0.008688822
0.016473204 -0.13307238 -0.021030337 0.11389531 -0.051861785 0.090056494 0.017180085 0.0058778226
-0.07367064 0.039018735 -0.088387795 -0.018558286 0.12919928 0.057305053 0.07771474 -0.08698301
0.01701279 0.020435914 -0.094884984 -0.03140448 0.11327951 0.004404038 -0.09499203 -0.10196778
-0.02273991 0.016825259 -0.10645731 0.06898433 -0.12425736 0.13407035 0.004519254 -0.08616464
-0.025030417 -0.08080916 -0.10149414 0.113350675 0.08676494 -0.0376304 0.039260596 -0.10723153
0.008497432 0.11891516 -0.008785456 -0.111641206 -0.054826982 0.0029323548 0.1372617 0.00096412795
-0.067525454 0.11724141 0.031242905 -0.10600973 0.1083222 -0.05117738 0.05640635 0.03567645
0.09554347 -0.0965288 0.08329505 -0.0013413876 0.07827966 0.0331954 -0.0019014627 -0.11644964
0.07643597 0.06893734 0.054658026 -0.024752894 -0.12614483 -0.076891035 -0.0037114825 0.12360369
1.1494565e-05 -0.05804243 0.087329894 -0.11156797 -0.13221557 -0.015160241 0.09517455 0.080518946
-0.1115752 0.109375976 0.07715397 0.028340911 0.033398505 -0.053733543 -0.012262277 -0.053939547
-0.08631526 -0.032430843 0.051882222 -0.05013897 0.10474475 0.14324242 0.003685419 0.04615952
0.096041456 0.013483107 0.11832081 -0.02414658 -0.021512955 0.05045356 0.10291016 -0.102885514
0.0029953502 -0.047441036 -0.03639651 0.004257381 -0.013036554 0.05847084 -0.08302215 -0.10787962
-0.09768485 -0.0047538024 -0.0048477896 -0.1154531 0.072598875 0.0014184695 0.036813933 -0.051495023
0.06989717 0.091334194 0.030841483 -0.016904183 0.12969334 0.032418206 0.09764907 -0.09787165
-0.049709707 0.13225393 -0.0741356 -0.11227122 -0.00027061233 0.06447897 -0.022771977 0.00674662
00000000: 68f6 7bbd 4a07 c43d 8b1d a7bc 643d 9fbb
00000010: 0af0 f93d e46f a13d 6780 1bbd 1fad eebd
00000020: 7b9d 92bd ce96 da3d 54aa fabc fa9f d33d
00000030: b0d5 4b3d 7327 f53d 717d b33d fe6c d63d
00000040: f279 973d 57a1 753d 12f7 973d 0080 303c
00000050: 01b9 e83c 8c51 333d a241 7b3d 8bfb dc3d
00000060: 4649 fe3d 945f 43bd 0657 6abd 2007 22bc
00000070: 9437 01be 0752 36bd 981d d53c a448 71bd
00000080: d08e 033c ebae 4cbd e53d 8fbd a05c 213d
00000090: 28bd 11bd baea f73d cd9a bfbd 2af8 993c
000000a0: 5e4b d5bd 73a4 3e3d a2a2 56bc 7ded 0f3c
000000b0: 6373 0dbe ac53 a5bd 5cc8 03bd 5c6e 9a3c
000000c0: 9ce2 cc3d 22c3 9fbd 40e1 c03b 5a46 823d
000000d0: 3bbf 60bc 5f50 fc3d 51be 15be 2c2e 433d
000000e0: d445 ca3d 63b5 1abe e06a 913c 95ad 04be
000000f0: e8bb da3c e5b3 ba3d a218 ed3d e9e1 623d
00000100: b953 2a3d 9a28 023e 5be1 613d 1ccc e2bd
00000110: 77f1 5fbd b3cb 8a3c cfa7 aab9 2b29 a1bd
00000120: d205 fcbd 7ef6 9a3d 10fa 0a3e 8030 8a3b
00000130: 9445 67bd 8044 02bb f29a d8bc e805 9bbd
00000140: 9595 c3bd d6d8 523d 5662 923d 340e 003e
00000150: 824c b0bd fc55 be3d 2947 c73d db46 8c3b
00000160: 2774 b23c 4098 193e c880 1ebd a146 183e
00000170: 9b37 443d 05d0 b6bd dff0 89bc 62d5 2fbd
00000180: 4f00 6ebd e75c 083e 32db 46bc 425a b13d
00000190: 2675 803d ce93 a3bd 60a2 6abd 6d51 033e
000001a0: 17bb 8dbd 791f 063e 8039 403c c82c 223d
000001b0: decd fe3d c8ad af3d bea9 923d 20ab dabb
000001c0: 6843 0cbe 64ff 583d b0bc fa3c ae48 fc3d
000001d0: c4e3 d4bd bd96 e4bd 28d4 e9bd 905b 0e3c
000001e0: d0f2 863c 2044 08be d047 acbc f241 e93d
000001f0: 066d 54bd 8a6f b83d 40bd 8c3c c09a c03b
00000200: a2e0 96bd 1cd2 1f3d a904 b5bd 8c07 98bc
00000210: d14c 043e b4b8 6a3d e828 9f3d 2624 b2bd
00000220: 685e 8b3c 3869 a73c 0f53 c2bd fca1 00bd
00000230: 16ff e73d c04f 903b 2e8b c2bd 7cd4 d0bd
00000240: 0c49 babc 20d5 893c 4a06 dabd a847 8d3d
00000250: a57a febd bd49 093e 4016 943b 1677 b0bd
00000260: 970c cdbc 467f a5bd 29dc cfbd 6624 e83d
00000270: d1b1 b13d 5622 1abd b8cf 203d 349c dbbd
00000280: d038 0b3c cb89 f33d e0f0 0fbc 25a4 e4bd
00000290: 4292 60bd c02c 403b 558e 0c3e 88bd 7c3a
000002a0: c94a 8abd 441c f03d 1ff1 ff3c a11b d9bd
000002b0: 08d8 dd3d 5f9f 51bd 580a 673d 7821 123d
000002c0: 4bac c33d e4b0 c5bd 9896 aa3d 80d1 afba
000002d0: 1651 a03d e6f7 073d 803a f9ba 267d eebd
000002e0: 768a 9c3d 052f 8d3d 18e1 5f3d 95c6 cabc
000002f0: 1c2c 01be 0c79 9dbd 583c 73bb ee23 fd3d
00000300: c8d8 4037 e6bd 6dbd 04da b23d bf7d e4bd
00000310: 8563 07be a962 78bc e0ea c23d 1ee7 a43d
00000320: 8a81 e4bd 8300 e03d e702 9e3d 332b e83c
00000330: dfcc 083d b417 5cbd b8e7 48bc b7ef 5cbd
00000340: 0ec6 b0bd 34d6 04bd 7482 543d 855e 4dbd
00000350: 6a84 d63d 24ae 123e 1287 713b c411 3d3d
00000360: 62b1 c43d 40e8 5c3c 2e52 f23d 0ccf c5bc
00000370: f03b b0bc 64a8 4e3d 90c2 d23d a4b5 d2bd
00000380: a34d 443b 8851 42bd 8214 15bd 8081 8b3b
00000390: 4597 55bc 1f7f 6f3d 8407 aabd fdef dcbd
000003a0: ff0e c8bd c9c5 9bbb 35da 9ebb ad72 ecbd
000003b0: b8ae 943d f0eb b93a 35ca 163d 72ec 52bd
000003c0: 3f26 8f3d 6c0d bb3d 47a7 fc3c a47a 8abc
000003d0: 55ce 043e f4c8 043d 3cfc c73d ee70 c8bd
000003e0: 689c 4bbd 936d 073e 68d4 97bd 74ee e5bd
000003f0: f9e0 8db9 8d0d 843d 4c8c babc c012 dd3b

lstm.bias_ih_l0 f4 [200]
-0.08120671 -0.10460743 -0.052897923 0.047058266 -0.121328704 0.13109457 0.16543701 0.06872329
-0.022565138 -0.12533675 -0.056745432 -0.07841687 -0.10035815 0.110018566 0.10900146 0.070651025
-0.08882891 -0.098712265 0.075815775 -0.04779974 0.059479278 -0.07882677 0.06743756 -0.006935789
0.12933531 0.11382373 -0.08854916 -0.0038897693 -0.010650132 -0.11568966 0.12443229 -0.13800031
-0.09694308 -0.09567877 0.15758085 -0.13158852 -0.12643397 0.032622542 0.0014021983 0.014963477
-0.03332523 -0.055896267 0.12866224 -0.03644804 0.10825782 0.1005138 -0.0054738107 -0.05972518
0.119801596 -0.036896814 -0.010439051 0.07574513 0.12981693 -0.05161483 -0.15581319 -0.14929183
0.0881199 -0.032611575 0.054488994 0.13065316 -0.049843077 -0.1336436 -0.021705002 0.016663354
-0.059959058 0.14598426 -0.09310809 -0.04016281 -0.043904245 0.05595182 0.15784906 -0.004955068
0.11595997 -0.022103779 -0.13213977 -0.06990526 0.06417985 0.08772716 0.023704479 0.06569463
-0.11952961 0.03411559 0.11458616 0.056271892 -0.041591108 0.0381222 -0.016855635 0.10138759
0.043805905 -0.14175075 0.024826016 -0.014657452 -0.14864205 0.0039702267 0.035970464 -0.050758522
-0.09917266 -0.0657147 0.09394484 0.1136287 0.09918983 0.109534085 0.06913822 0.12081118
0.07249418 0.059971817 0.12634237 -0.016389899 -0.12426549 0.013553932 -0.0102532655 -0.076175526
0.06258894 -0.018933315 -0.08626319 0.14619851 -0.040301614 -0.10749944 -0.07189335 -0.12653084
-0.021317594 0.063668974 0.048873093 -0.006550936 -0.11424849 0.11935599 0.12515382 -0.14018829
-0.009796879 -0.122096784 -0.070842735 -0.023047028 0.07510313 -0.041642353 0.1092516 -0.003513381
0.12924959 -0.07436581 0.14253375 -0.026157955 0.007198591 -0.14022039 0.037496634 0.08692759
-0.022138141 0.0064221323 0.0534301 0.0018983702 0.026664376 -0.11943433 0.06561553 -0.14390951
-0.06570047 -0.08157654 -0.01904852 -0.11056881 0.03986331 0.0006128017 0.04060759 -0.021998892
-0.00851461 0.06856286 0.116756745 -0.040153105 0.029878786 0.08840406 -0.11419905 0.07631926
-0.10198406 -0.060675427 0.06796859 -0.13467312 0.02434258 -0.0035667913 0.121182434 -0.048333734
0.0589368 0.12664683 -0.1166647 0.12384859 -0.11281361 -0.08629354 -0.111553825 -0.16016401
0.07348821 -0.013260983 -0.14803122 0.0811109 -0.112676755 -0.0030369158 -0.109852076 -0.09126596
-0.011326136 -0.13853963 0.06386308 -0.15267542 -0.068790935 0.042459458 0.00015625358 -0.0019291643
00000000: b44f a6bd 6c3c d6bd 7eab 58bd 2bc0 403d
00000010: 2f7b f8bd a83d 063e 5268 293e ccbe 8c3d
00000020: 86da b8bc 4758 00be e66d 68bd 0699 a0bd
00000030: 9388 cdbd 6a51 e13d 283c df3d 7cb1 903d
00000040: eeeb b5bd a829 cabd 4d45 9b3d a9c9 43bd
00000050: 8ba0 733d ee6f a1bd b41c 8a3d 9d45 e3bb
00000060: 7a70 043e 6a1c e93d 4359 b5bd 80eb 7ebb
00000070: e47d 2ebc b3ee ecbd 5bd6 fe3d f44f 0dbe
00000080: 188a c6bd 3bf3 c3bd e05c 213e 24bf 06be
00000090: e877 01be 379f 053d f8c9 b73a 5f29 753c
000000a0: 0980 08bd 7cf3 64bd 09c0 033e 8a4a 15bd
000000b0: 47b6 dd3d 2eda cd3d a75d b3bb 64a2 74bd
000000c0: 8a5a f53d 1d21 17bd 8e08 2bbc 4320 9b3d
000000d0: bbee 043e 126a 53bd 7e8d 1fbe f5df 18be
000000e0: 3578 b43d b793 05bd da2f 5f3d f1c9 053e
000000f0: 4128 4cbd ded9 08be b0ce b1bc 9681 883c
00000100: a197 75bd e67c 153e 74af bebd c281 24bd
00000110: f0d4 33bd bc2d 653d 2fa3 213e 205e a2bb
00000120: 6c7c ed3d fc12 b5bc a64f 07be 7d2a 8fbd
00000130: ba70 833d 4caa b33d e52f c23c e88a 863d
00000140: f1cb f4bd cabc 0b3d 26ac ea3d 5b7d 663d
00000150: 705b 2abd 0626 1c3d d414 8abc 4ca4 cf3d
00000160: d26d 333d 1c27 11be ee5f cb3c cf25 70bc
00000170: 9f35 18be ad18 823b c455 133d 2be8 4fbd
00000180: 091b cbbd 6e95 86bd 2766 c03d 2ab6 e83d
00000190: 0a24 cb3d 6853 e03d 5798 8d3d da6b f73d
000001a0: d477 943d 02a5 753d e55f 013e 1c44 86bc
000001b0: e87e febd 5011 5e3c 50fd 27bc ea01 9cbd
000001c0: a12e 803d 0a1a 9bbc c1aa b0bd 10b5 153e
000001d0: 4e13 25bd ab28 dcbd d23c 93bd 4d91 01be
000001e0: 3ca2 aebc e164 823d 272f 483d 3ca9 d6bb
000001f0: 1dfb e9bd ea70 f43d 5328 003e 858d 0fbe
00000200: 1783 20bc e10d fabd ff15 91bd 1fcd bcbc
00000210: abcf 993d 2c91 2abd 4ebf df3d c040 66bb
00000220: 015a 043e 1a4d 98bd 5ef4 113e 3549 d6bc
00000230: 28e2 eb3b ef95 0fbe 1296 193d 1807 b23d
00000240: 0c5b b5bc c070 d23b 85d9 5a3d bcd2 f83a
00000250: 406f da3c fc99 f4bd 6f61 863d 045d 13be
00000260: f88d 86bd 9a11 a7bd a40b 9cbc e671 e2bd
00000270: b647 233d 6da4 203a 2554 263d 0537 b4bc
00000280: dd80 0bbc af6a 8c3d 291e ef3d 9577 24bd
00000290: 5bc4 f43c 300d b53d 31e1 e9bd 464d 9c3d
000002a0: 05dd d0bd cc86 78bd 1e33 8b3d c0e7 09be
000002b0: 176a c73c d4c0 69bb 7f2e f83d 98f9 45bd
000002c0: b767 713d b5af 013e e7ed eebd 54a4 fd3d
000002d0: d20a e7bd abba b0bd 5576 e4bd 0902 24be
000002e0: fd80 963d 9844 59bc 7f95 17be 791d a63d
000002f0: 12c3 e6bd fe06 47bb 20fa e0bd a6e9 babd
00000300: 4291 39bc 55dd 0dbe a6ca 823d f256 1cbe
00000310: 43e2 8cbd f8e9 2d3d 00d8 2339 03dc fcba

lstm.bias_hh_l0 f4 [200]
0.045112014 -0.017048363 -0.029966883 -0.018377708 -0.098210365 0.09607389 0.14689746 -0.1275283
0.10171713 0.046089843 0.094602756 -0.04571628 0.011578381 -0.13730201 0.047787495 -0.0648104
-0.059334688 0.1490161 0.058107868 0.10454235 0.08951044 -0.029996712 0.025320143 0.034672663
0.107664496 0.056558277 0.07047438 0.08909652 -0.11263673 -0.11167813 -0.061236095 0.03825938
-0.09339695 -0.044915136 0.08309539 -0.11880922 0.096974075 0.03261442 -0.043505453 0.07188122
-0.019385045 -0.010342032 -0.0784404 -0.049517676 0.03709803 0.08863126 -0.08495414 -0.041067798
0.03661084 -0.091738656 0.11541785 0.01083831 -0.05853132 -0.013112524 -0.07284947 -0.021514956
-0.034874335 -0.12112575 -0.011509957 0.13990502 0.11511684 0.01240173 -0.08779442 0.029640604
0.14070055 0.047867574 0.08543046 -0.038766116 0.007016415 0.09199296 0.06890449 -0.13788939
0.07726991 0.035335258 0.06915873 0.03473401 -0.10626704 0.112935856 -0.032033417 -0.034799624
-0.010408964 0.074857324 -0.011838827 0.026946757 0.06585909 -0.056442566 -0.120939694 0.042653866
-0.04522174 -0.0497241 -0.12222224 -0.0065678763 -0.09302284 -0.14936101 -0.10220488 0.11690708
-0.05987177 -0.010434121 0.012867164 -0.053809997 0.081934914 0.014953095 0.11659351 -0.0024332702
0.01481612 0.08776281 0.018338121 -0.018736187 0.06297174 0.063932225 0.13313277 0.08762379
0.12444601 -0.0036125858 -0.029760582 0.19094375 0.116352245 -0.04229496 -0.057591017 0.010384744
-0.12902658 -0.1341643 -0.033379763 0.06749491 -0.13022876 0.0755264 0.032845378 0.07385062
0.01678175 -0.1596438 -0.0072364765 -0.059329595 -0.0041720737 0.13501753 -0.038379543 0.083317325
0.08217956 0.10969384 0.11443833 -0.05612337 0.056627106 -0.05297002 -0.014271415 0.07154705
0.074880704 -0.035407268 -0.0029001378 0.007181947 -0.12324638 -0.14137158 0.09948815 0.109313615
-0.039873175 -0.01618018 -0.12090374 0.012207434 0.01752066 -0.116417244 -0.031632133 -0.04788796
-0.08125708 0.018299589 0.10437695 0.082151785 -0.09038747 0.10116008 -0.14443639 0.08554484
0.026493471 -0.037811924 -0.101519264 0.10579799 -0.10585631 -0.08965391 0.003679966 0.016901331
-0.13219477 -0.079370305 -0.09084279 0.011475628 -0.11050716 0.0638387 -0.07680405 -0.15660395
-0.059922274 0.14903641 -0.1027181 0.09623767 -0.1326163 -0.034001537 -0.01349109 -0.10491811
0.06562473 -0.060739435 0.0010792974 0.099665195 0.00957786 -0.040780365 0.08341661 -0.07085891
00000000: 60c7 383d 02a9 8bbc 1c7d f5bc d98c 96bc
00000010: 8422 c9bd 63c2 c43d 4a6c 163e c796 02be
00000020: 1251 d03d b4c8 3c3d 17bf c13d fe40 3bbd
00000030: 40b3 3d3c e698 0cbe d2bc 433d 51bb 84bd
00000040: ee08 73bd ad97 183e 8402 6e3d 4d1a d63d
00000050: 4051 b73d aabb f5bc 306c cf3c ec04 0e3d
00000060: 347f dc3d a7a9 673d df54 903d 3c78 b63d
00000070: 16ae e6bd 81b7 e4bd b3d2 7abd deb5 1c3d
00000080: e646 bfbd eff8 37bd ea2d aa3d 4052 f3bd
00000090: 589a c63d b396 053d c632 32bd 7636 933d
000000a0: 63cd 9ebc a071 29bc 5ca5 a0bd 0cd3 4abd
000000b0: 1bf4 173d 4e84 b53d 70fc adbd b536 28bd
000000c0: 40f5 153d 7ae1 bbbd 3260 ec3d 2b93 313c
000000d0: 8abe 6fbd e9d5 56bc 1a32 95bd 2240 b0bc
000000e0: 64d8 0ebd c710 f8bd 4294 3cbc 4343 0f3e
000000f0: 61c2 eb3d a030 4b3c 90cd b3bd dad0 f23c
00000100: ce13 103e ca10 443d 2af6 ae3d 38c9 1ebd
00000110: f4e9 e53b ce66 bc3d cc1d 8d3d e032 0dbe
00000120: b03f 9e3d b4bb 103d 18a3 8d3d 4045 0e3d
00000130: 89a2 d9bd ea4a e73d 7935 03bd 0d8a 0ebd
00000140: 5c8a 2abc cc4e 993d a4f7 41bc 72bf dc3c
00000150: 21e1 863d 5230 67bd 3baf f7bd d2b5 2e3d
00000160: 6e3a 39bd 7fab 4bbd a74f fabd 5737 d7bb
00000170: c282 bebd 18f2 18be cb50 d1bd fb6c ef3d
00000180: 1a3c 75bd e0f3 2abc ccd0 523c df67 5cbd
00000190: 7ecd a73d d3fd 743c 94c8 ee3d 8077 1fbb
000001a0: 50bf 723c fdbc b33d d439 963c a27c 99bc
000001b0: 54f7 803d e6ee 823d f553 083e 1a74 b33d
000001c0: 8ddd fe3d 22c1 6cbb 77cc f3bc c286 433e
000001d0: 164a ee3d 7b3d 2dbd 8fe4 6bbd c624 2a3c
000001e0: 8b1f 04be 5e62 09be 38b9 08bd c53a 8a3d
000001f0: b05a 05be 96ad 9a3d e088 063d fe3e 973d
00000200: e179 893c aa79 23be f71f edbb 9703 73bd
00000210: e4b5 88bb 0942 0a3e de33 1dbd 46a2 aa3d
00000220: c24d a83d 2aa7 e03d a55e ea3d 9ee1 65bd
00000230: d3f1 673d 17f7 58bd a7d2 69bc 4287 923d
00000240: 0e5b 993d 3607 11bd 3d10 3ebb 8a56 eb3b
00000250: 9968 fcbd b6c3 10be 71c0 cb3d d1df df3d
00000260: 0e52 23bd 4c8c 84bc 619c f7bd b001 483c
00000270: 7d87 8f3c 2a6c eebd b290 01bd 2a26 44bd
00000280: 1d6a a6bd 05e9 953c 95c3 d53d 323f a83d
00000290: 111d b9bd 042d cf3d 22e7 13be 2232 af3d
000002a0: d608 d93c ade0 1abd 55e9 cfbd 9eac d83d
000002b0: 31cb d8bd 789c b7bd 962b 713b a974 8a3c
000002c0: 115e 07be e68c a2bd c90b babd 4604 3c3c
000002d0: 9451 e2bd ddbd 823d 714b 9dbd c95c 20be
000002e0: 0f71 75bd 009d 183e de5d d2bd 4118 c53d
000002f0: 91cc 07be 3245 0bbd bc09 5dbc 4edf d6bd
00000300: 4266 863d eac9 78bd 3677 8d3a 441d cc3d
00000310: 75ec 1c3c 5009 27bd 54d6 aa3d 7a1e 91bd

lstm.weight_ih_l0_reverse f4 [200, 45]
0.028872792 0.016732007 0.07772414 -0.09666196 -0.09820526 -0.005230628 -0.12613532 0.051752057
0.014456917 0.11263169 0.041782368 0.05155548 -0.1029015 -0.044956923 0.021719666 0.0911492
-0.1151868 -0.042837422 -0.06481349 0.10023651 0.013523287 0.06000256 0.005694946 0.050352596
0.006594021 0.14297451 -0.057768196 -0.01586061 0.1162113 -0.10127272 0.0048328587 0.11421851
0.121969454 -0.029369263 -0.02832699 -0.13165143 -0.083796114 -0.021116173 -0.09203613 -0.10879206
0.011862385 0.07332507 -0.1474478 -0.048824724 -0.13290809 -0.065443374 0.029551659 0.050166372
0.010922433 -0.13108404 -0.009293881 -0.017944664 -0.06937971 0.051748183 -0.18552788 -0.08619602
-0.017740184 -0.004322356 -0.05881606 -0.1655654 0.06361179 0.103833176 0.104894005 -0.0014320359
-0.18091878 -0.14827657 -0.08929645 0.038424283 -0.060899295 -0.070024915 0.025434628 -0.086253814
-0.020957515 0.09372974 0.04439791 0.1322753 -0.16026352 -0.09758788 0.082774945 -0.006029928
0.10702542 0.0589201 0.13231483 -0.09007734 -0.059487563 -0.0459146 -0.017672086 0.016466266
-0.09981423 0.0047212415 0.00803628 -0.029797299 -0.111718915 0.15592037 0.11440623 0.023549909
0.011723877 0.03172031 -0.050896395 0.13597915 -0.09001956 0.1529803 0.07623413 -0.09238219
0.109115385 0.11625768 0.06348338 0.103555195 -0.10228307 0.045495335 -0.10719197 0.08405942
0.14129208 0.041878145 -0.11645507 -0.02044928 -0.010635419 -0.08859001 -0.016624387 0.1266192
-0.1145862 -0.005824356 -0.12821569 0.053205356 -0.11925862 -0.116552696 0.0665576 -0.07165654
-0.17767149 -0.060214315 0.12069823 0.08208869 0.14845872 0.08633818 0.055716865 -0.13331251
0.1311873 0.021595184 -0.073878504 -0.08109097 -0.03721904 0.12822172 0.0064065605 0.06267644
0.033710472 0.017228408 -0.02323854 -0.12436281 0.05178462 0.02411876 0.14168723 -0.030476479
-0.064492196 -0.040741995 0.07279644 -0.052825205 0.09284931 -0.04636786 -0.034983046 -0.14546832
-0.12869586 0.12325795 -0.104491115 -0.10403612 0.06369121 -0.03254182 -0.12883955 -0.043091733
0.07524197 -0.011832498 -0.045759752 0.048998848 -0.02625765 -0.04649574 0.011578694 -0.02031332
-0.024854193 0.061648004 -0.04086221 -0.0009371652 0.074215814 0.09384157 -0.070813574 -0.012249798
0.09677811 -0.07430895 -0.06655261 0.038480192 0.07941465 0.026767164 -0.09510044 -0.08806139
-0.0677343 0.01824607 -0.099686 0.008017987 -0.07300892 -0.08001 0.055139616 0.120724455
0.087757796 0.10007124 0.05412163 -0.03763759 -0.09256123 0.10103111 0.030061021 0.13308875
-0.1353326 -0.009129405 -0.11397132 -0.13903013 -0.06108635 -0.041514747 -0.12904863 0.058801234
-0.068257265 -0.077733845 0.050297156 -0.08166687 -0.042357855 0.09386788 -0.036610052 -0.049774453
-0.13985644 0.0952818 0.017547699 0.08493463 0.11679716 0.09982455 0.13190174 -0.06278411
0.07099322 0.109579325 -0.031996712 0.017788256 0.09375702 -0.10124525 -0.025572455 0.09066423
0.110564694 0.180285 0.09512382 -0.0593378 0.021238439 0.045327038 -0.112141185 -0.07070767
0.11424596 0.022616634 -0.017454656 0.029675642 0.106766954 -0.10277835 0.061193816 0.017026015
00000000: a286 ec3c 9011 893c d52d 9f3d b5f6 c5bd
00000010: d71f c9bd b065 abbb 9e29 01be f7f9 533d
00000020: b4dc 6c3c 72ab e63d fd23 2b3d d72b 533d
00000030: 06be d2bd c024 38bd 71ed b13c 6fac ba3d
00000040: 0fe7 ebbd 4b76 2fbd efbc 84bd cd48 cd3d
00000050: c790 5d3c 3fc5 753d ab9c ba3b 863e 4e3d
00000060: a812 d83b e967 123e 589e 6cbd 1cee 81bc
00000070: 3100 ee3d 1268 cfbd f55c 9e3b 65eb e93d
00000080: 1fcb f93d cf97 f0bc 010e e8bc a2cf 06be
00000090: 4c9d abbd d3fb acbc 707d bcbd 5fce debd
000000a0: 735a 423c 742b 963d 8efc 16be 6ffc 47bd
000000b0: 0f19 08be 2d07 86bd 5216 f23c 417b 4d3d
000000c0: 01f4 323c e53a 06be 5d45 18bc b000 93bc
000000d0: f316 8ebd e7f5 533d 05fb 3dbe 8a87 b0bd
000000e0: dd53 91bc 8da2 8dbb 1ce9 70bd fa89 29be
000000f0: e646 823d 7da6 d43d abd2 d63d 27b3 bbba
00000100: c642 39be d0d5 17be 0fe1 b6bd c862 1d3d
00000110: 8a71 79bd 3969 8fbd 485c d03c d7a5 b0bd
00000120: 18af abbc 61f5 bf3d 95da 353d 2d73 073e
00000130: 1f1c 24be 28dc c7bd e985 a93d b496 c5bb
00000140: 2530 db3d 3456 713d 8a7d 073e 787a b8bd
00000150: 3ba9 73bd f310 3cbd 0dc5 90bc 43e4 863c
00000160: 676b ccbd a5b4 9a3b 9aaa 033c 7719 f4bc
00000170: e3cc e4bd 97a9 1f3e d04d ea3d bdeb c03c
00000180: 8115 403c 28ed 013d bd78 50bd 1e3e 0b3e
00000190: 2d5c b8bd dea6 1c3e a420 9c3d e032 bdbd
000001a0: e377 df3d 8218 ee3d 9303 823d bf14 d43d
000001b0: c979 d1bd 5159 3a3d 7787 dbbd 5827 ac3d
000001c0: dfae 103e 6b88 2b3d ff7f eebd 4085 a7bc
000001d0: 2e40 2ebc ae6e b5bd de2f 88bc 77a8 013e
000001e0: 2bac eabd 3dda bebb f94a 03be dced 593d
000001f0: dd3d f4bd 2eb3 eebd 5a4f 883d aac0 92bd
00000200: 84ef 35be 49a3 76bd a230 f73d 1d1e a83d
00000210: 9005 183e 12d2 b03d 5e37 643d 1383 08be
00000220: f755 063e 62e8 b03c 9d4d 97bd 0613 a6bd
00000230: fe72 18bd 8e4c 033e 20ee d13b 815c 803d
00000240: fe13 0a3d 9722 8d3c c05e bebc eeb1 febd
00000250: 1c1c 543d b594 c53c 7516 113e cfa9 f9bc
00000260: 7c14 84bd 14e1 26bd 4d16 953d 3e5f 58bd
00000270: c727 be3d 3aec 3dbd 624a 0fbd a6f5 14be
00000280: d9c8 03be aa6e fc3d 70ff d5bd e410 d5bd
00000290: 8970 823d 924a 05bd 84ee 03be f580 30bd
000002a0: 7618 9a3d 18dd 41bc 946e 3bbd 04b3 483d
000002b0: 491a d7bc 5172 3ebd 90b4 3d3c 1f68 a6bc
000002c0: 059b cbbc 9e82 7c3d 225f 27bd 18ac 75ba
000002d0: 76fe 973d 0230 c03d b506 91bd 60b3 48bc
000002e0: 9a33 c63d 4a2f 98bd bc4c 88bd 689d 1d3d
000002f0: 26a4 a23d d046 db3c 05c4 c2bd 8859 b4bd
00000300: 48b8 8abd c878 953c 2c28 ccbd e05d 033c
00000310: b385 95bd 48dc a3bd 14da 613d 623e f73d
00000320: 5cba b33d 26f2 cc3d a4ae 5d3d e029 1abd
00000330: be90 bdbd 66e9 ce3d 8842 f63c 6b48 083e
00000340: a194 0abe 8093 15bc cc69 e9bd ea5d 0ebe
00000350: ae35 7abd 5e0b 2abd 5325 04be 90d9 703d
00000360: 77ca 8bbd ec32 9fbd 6404 4e3d f640 a7bd
00000370: 6e7f 2dbd ce3d c03d 6cf4 15bd 4ce0 4bbd
00000380: 8736 0fbe 1b23 c33d 31c0 8f3c 35f2 ad3d
00000390: 5933 ef3d d070 cc3d 4011 073e f594 80bd
000003a0: e564 913d 206b e03d fc0e 03bd adb8 913c
000003b0: ae03 c03d ab59 cfbd 537d d1bc 2bae b93d
000003c0: be6f e23d a29c 383e 47d0 c23d 310c 73bd
000003d0: 3cfc ad3c d8a8 393d 47aa e5bd 2fcf 90bd
000003e0: c9f9 e93d 8546 b93c 11fd 8ebc 551a f33c
000003f0: a2a8 da3d 757d d2bd 5ea6 7a3d 247a 8b3c

lstm.weight_hh_l0_reverse f4 [200, 50]
0.02686762 0.0936417 -0.018734597 -0.11202093 -0.09563881 -0.04255736 0.0695153 -0.10759917
-0.08313221 -0.110256724 -0.067020975 -0.08115243 -0.010193645 -0.04369098 0.04221038 0.092207395
0.027208824 -0.12244918 0.014424274 -0.1289964 0.05092226 0.088915914 0.11634856 -0.08076729
0.08211724 0.01721605 -0.08916434 -0.115829825 0.10850858 -0.065422215 -0.048802145 0.0139207775
0.009234573 0.050499946 -0.0238421 -0.11715727 -0.1279196 -0.024057368 0.051102325 -0.110048294
-0.05412032 0.12071141 -0.11943605 0.066631235 0.05206963 0.024540108 0.1390846 0.097125955
-0.124904305 -0.11567224 0.0269759 -0.13799043 -0.09671699 0.014694349 -0.044409707 -0.06814458
0.030273587 -0.055292513 -0.06753502 -0.012819822 0.0945004 -0.06320532 0.020094996 0.09370935
0.114572555 -0.09438447 -0.08679364 -0.093444146 0.11894192 -0.023557516 -0.09087037 0.023400985
0.006738754 -0.0148427645 0.031657975 0.027999341 -0.03510965 0.097037815 0.1275327 0.13690747
-0.090584055 -0.076402925 0.05340912 0.05077283 -0.022194725 0.12222184 0.02803765 -0.10884484
0.060030382 -0.12844643 -0.17196046 0.119011715 0.07229504 -0.011458266 -0.05641192 -0.08511428
0.017955683 0.024670808 0.1290598 -0.16403091 0.078249454 -0.08731022 0.026319908 -0.08088784
-0.13637966 0.1420314 0.069876865 0.067016914 -0.060368937 -0.13898762 0.014797184 -0.022811027
0.049317196 0.008218137 0.15503532 0.07836775 0.12915908 -0.034991685 -0.12371233 0.12509392
0.068697535 0.0655844 0.12929547 -0.06256861 0.06754023 -0.052012164 0.058677968 0.12697135
-0.12272468 -0.12090466 0.0059703654 -0.048236206 -0.09260168 -0.057371557 -0.019154979 -0.03981941
-0.06307067 0.07378545 0.06260574 0.013205885 0.10391103 -0.058299344 0.14104043 0.0010598776
-0.06783963 -0.114102505 0.058072202 0.05965823 0.12820356 -0.084107034 0.03440157 -0.11593657
-0.13028015 -0.12605187 0.071856484 0.12675665 -0.11694787 -0.02404954 -0.05402314 -0.054801285
-0.12907042 -0.05698253 -0.07551618 0.09013372 0.024010837 -0.1322809 -0.0034710357 -0.10700028
-0.12245335 -0.13504645 0.020219868 0.037674587 -0.067423336 -0.13029462 0.036117215 -0.07132788
0.13086084 -0.1387587 0.07612802 -0.10767898 -0.06638022 -0.01534188 0.036518667 -0.026886046
-0.083837606 0.061998464 0.06787865 0.04494673 -0.12910119 0.01058358 0.037432354 0.046207007
-0.10790075 0.139353 0.14094444 -0.039460808 -0.12040071 -0.091652155 0.123490565 -0.02335904
0.08750282 0.026209503 0.032924578 0.060942218 0.09897055 -0.12178216 0.086548075 0.009528294
-0.12663949 -0.12764923 0.12026869 -0.0744604 -0.11744516 0.019248486 0.1359341 0.011428669
0.033859223 -0.101854965 0.09440912 -0.095468074 0.018494979 0.060439155 -0.13297194 -0.09067279
0.063721254 -0.061363637 -0.06850554 -0.1061079 0.06889939 0.10833295 0.023524523 0.10456997
0.038543954 0.13459776 0.1343141 -0.08938822 0.07613641 0.03144364 0.057759374 0.029406965
-0.054195695 0.096994504 0.14111559 0.13451768 -0.0314442 -0.13333482 0.0016347319 -0.0507819
0.11942886 -0.09809546 -0.016022068 -0.104256384 -0.110057645 -0.095792376 0.044949338 -0.00862749
00000000: 7c19 dc3c 38c7 bf3d 4c79 99bc 3b6b e5bd
00000010: 48de c3bd a050 2ebd 0a5e 8e3d f45c dcbd
00000020: 3841 aabd 47ce e1bd 4b42 89bd 3f33 a6bd
00000030: 3f03 27bc 50f5 32bd cbe4 2c3d 3bd7 bc3d
00000040: 0ae5 de3c a3c6 fabd ca53 6c3c a217 04be
00000050: dc93 503d 8c19 b63d 2748 ee3d 5269 a5bd
00000060: 152d a83d ac08 8d3c cb9b b6bd 3038 edbd
00000070: bf39 de3d 15fc 85bd c2e4 47bd f913 643c
00000080: 9b4c 173c 08d9 4e3d 8250 c3bc 27f0 efbd
00000090: 5bfd 02be f513 c5bc ac50 513d 0061 e1bd
000000a0: 45ad 5dbd 8b37 f73d e39a f4bd f575 883d
000000b0: f746 553d 5608 c93c 326c 0e3e f9e9 c63d
000000c0: d4cd ffbd 91e5 ecbd 90fc dc3c 5d4d 0dbe
000000d0: 8f13 c6bd 91c0 703c f4e6 35bd 638f 8bbd
000000e0: 5000 f83c 677a 62bd cd4f 8abd 3b0a 52bc
000000f0: 6d89 c13d ca71 81bd 439e a43c b0ea bf3d
00000100: 04a5 ea3d a54c c1bd ddc0 b1bd a55f bfbd
00000110: d297 f33d b1fb c0bc 3f1a babd 6cb3 bf3c
00000120: c4d0 dc3b 112f 73bc cbab 013d e05e e53c
00000130: 23cf 0fbd c3bb c63d ef97 023e 7931 0c3e
00000140: 2284 b9bd 2379 9cbd 85c3 5a3d 2cf7 4f3d
00000150: b6d1 b5bc 724f fa3d 37af e53c 0bea debd
00000160: 6be2 753d 7687 03be 6716 30be 6abc f33d
00000170: 6c0f 943d 73bb 3bbc 2f10 67bd 6550 aebd
00000180: cc17 933c 6f1a ca3c 4128 043e b8f7 27be
00000190: 4041 a03d b3cf b2bd d99c d73c 86a8 a5bd
000001a0: 1ca7 0bbe ae70 113e 9a1b 8f3d 2a40 893d
000001b0: 6b45 77bd c552 0ebe e36f 723c 31de babc
000001c0: d400 4a3d 5da5 063c 94c1 1e3e 457f a03d
000001d0: 4742 043e 7153 0fbd e45c fdbd 9f18 003e
000001e0: 4bb1 8c3d 1d51 863d 0866 043e f923 80bd
000001f0: 8852 8a3d b50a 55bd 4f58 703d c704 023e
00000200: 1457 fbbd dd9c f7bd 0ea3 c33b 5493 45bd
00000210: f3a5 bdbd 70fe 6abd e7ea 9cbc ad19 23bd
00000220: 322b 81bd d31c 973d 7037 803d 7f5d 583c
00000230: 4ecf d43d 4bcb 6ebd e76c 103e 97eb 8a3a
00000240: 81ef 8abd 93ae e9bd 1edd 6d3d 305c 743d
00000250: cb47 033e 4f40 acbd a9e8 0c3d 2770 edbd
00000260: 2968 05be be13 01be 7e29 933d 7fcc 013e
00000270: 5d82 efbd 8a03 c5bc 5e47 5dbd 5077 60bd
00000280: 092b 04be 8366 69bd 3aa8 9abd 0798 b83d
00000290: 60b2 c43c a574 07be 517a 63bb f622 dbbd
000002a0: d2c8 fabd 9e49 0abe 23a4 a53c ab50 1a3d
000002b0: 3f15 8abd f46b 05be a5ef 133d 5a14 92bd
000002c0: 6200 063e c316 0ebe 02e9 9b3d cc86 dcbd
000002d0: 5af2 87bd 825c 7bbc 9994 153d 2040 dcbc
000002e0: 0db3 abbd 1af2 7d3d f603 8b3d 101a 383d
000002f0: 1a33 04be c066 2d3c ab52 193d 8f43 3d3d
00000300: 12fb dcbd 8eb2 0e3e bd53 103e a8a1 21bd
00000310: a694 f6bd 20b4 bbbd 9fe8 fc3d 755b bfbc
00000320: ae34 b33d 50b5 d63c ecdb 063d 8c9e 793d
00000330: 12b1 ca3d ed68 f9bd 1e40 b13d 901c 1c3c
00000340: c8ad 01be 7bb6 02be 6e4f f63d b27e 98bd
00000350: 1787 f0bd 00af 9d3c 4f32 0b3e 503f 3b3c
00000360: f8af 0a3d 5699 d0bd 9259 c13d c484 c3bd
00000370: c882 973c 0c8f 773d cc29 08be a8b2 b9bd
00000380: 4a80 823d 7058 7bbd a24c 8cbd 194f d9bd
00000390: 201b 8d3d aadd dd3d 80b6 c03c c828 d63d
000003a0: 44e0 1d3d ffd3 093e a389 093e 2c11 b7bd
000003b0: 68ed 9b3d 0ccb 003d 1895 6c3d e0e6 f03c
000003c0: 4efc 5dbd 0ea5 c63d 9b80 103e 01bf 093e
000003d0: a2cb 00bd ec88 08be 8044 d63a ae00 50bd
000003e0: 1e97 f43d 46e6 c8bd b640 83bc 5f84 d5bd
000003f0: e765 e1bd cb2e c4bd cc1c 383d 515a 0dbc

lstm.bias_ih_l0_reverse f4 [200]
0.12511894 0.05420034 -0.023411851 0.07672196 0.011308864 0.16314737 0.068339586 0.002700247
-0.1468385 0.121616535 0.0031478922 -0.013122665 0.022010963 -0.02076362 -0.041536868 -0.09314253
0.0115216365 0.100531414 -0.017929368 0.06952326 0.11934293 0.0061091185 0.02975366 -0.08681978
0.0009475391 -0.070108384 -0.09937696 0.09058811 0.013713744 0.011526808 0.13700691 -0.11618041
0.025328668 -0.03770501 0.059625622 0.011075676 -0.051253684 0.18243043 -0.024893835 0.0634014
0.056221463 -0.045494936 -0.0038527772 0.064894006 -0.072966374 -0.121991396 -0.09430132 0.0014008487
0.06228577 0.10754954 -0.12068473 0.00014192099 -0.11843543 -0.09859957 -0.06792869 -0.122768864
-0.0060799867 0.11898782 -0.13720255 0.08727669 -0.078692146 -0.053127356 0.06375384 -0.11118668
0.130148 0.10330684 -0.09693674 0.038529053 0.07745792 -0.015498221 -0.10707425 0.111444935
0.10806031 -0.017271988 -0.09771959 0.10398938 -0.121710025 -0.059427846 -0.016761597 0.017370388
-0.060934328 -0.045453742 -0.07533424 0.019339234 0.005108493 -0.026809333 -0.00095267594 0.06969169
-0.11685221 -0.08967669 -0.08353498 0.053365774 0.0322904 0.110121556 0.090994865 -0.08104277
0.09172269 -0.08805861 0.060542155 -0.11546944 0.04374304 -0.058022335 0.026424568 -0.10335469
-0.09753985 -0.040516563 0.004552275 -0.030872628 0.03066048 0.022024006 -0.11908548 -0.13050158
0.11771908 0.11140372 0.085648045 -0.13663544 -0.0005970895 -0.04606106 -0.003003195 0.1351094
-0.12620553 -0.063839816 -0.101333454 0.05472271 0.07901381 0.041402504 0.08623116 -0.018542022
0.10845109 0.037819654 0.14739089 0.034613967 -0.067409925 -0.051015764 -0.030371007 -0.05140757
0.0018741617 -0.010193827 0.05194384 0.05652614 0.112833604 0.0061589926 0.13539521 -0.06689844
0.016929954 0.05653818 0.0016084466 -0.13665128 0.086482815 0.06989253 0.07664965 -0.029173141
-0.11454199 -0.12060864 0.13092741 -0.109900646 -0.062069483 -0.1404941 0.018209534 0.13892475
0.054002274 -0.071361266 0.0753207 0.018580401 0.08655766 0.07711346 0.03866548 0.007627884
0.11363761 0.13866968 -0.113205105 -0.0007696131 -0.0787363 0.07221388 -0.0065704053 0.059758186
0.03474961 0.100335255 -0.10907294 -0.047604464 0.067487426 0.06478538 -0.001053021 0.042094022
-0.04910273 -0.15780142 -0.0390756 -0.06194329 -0.1195958 0.058971163 -0.00059927057 -0.015667021
0.015818793 0.006330399 0.01251488 -0.12528853 0.10500547 0.1546131 -0.059622902 0.099570885
00000000: 2e1f 003e 2d01 5e3d 36ca bfbc 6720 9d3d
00000010: d048 393c 1b10 273e a0f5 8b3d a1f6 303b
00000020: d55c 16be 1712 f93d de4c 4e3b 7200 57bc
00000030: 5650 b43c 7818 aabc 9022 2abd 83c1 bebd
00000040: 3fc5 3c3c 6ae3 cd3d 9ce0 92bc 3662 8e3d
00000050: 116a f43d 002f c83b f3bd f33c 92ce b1bd
00000060: 4664 783a fc94 8fbd 2686 cbbd 4286 b93d
00000070: 9caf 603c f0da 3c3c 8a4b 0c3e ffef edbd
00000080: 117e cf3c 9270 1abd ff39 743d c176 353c
00000090: 62ef 51bd 0bcf 3a3e 28ee cbbc 98d8 813d
000000a0: 7a48 663d e658 3abd e07e 7cbb 26e7 843d
000000b0: 656f 95bd a0d6 f9bd 0d21 c1bd af9c b73a
000000c0: 5d1f 7f3d ef42 dc3d 8e29 f7bd a0d0 1439
000000d0: 468e f2bd 92ee c9bd 321e 8bbd 3e6e fbbd
000000e0: a03a c7bb e3af f33d d37e 0cbe 1fbe b23d
000000f0: 5929 a1bd 129c 59bd 6091 823d d8b5 e3bd
00000100: 8445 053e 8992 d33d c586 c6bd a4d0 1d3d
00000110: 42a2 9e3d 40ec 7dbc bf49 dbbd 3e3d e43d
00000120: b94e dd3d fc7d 8dbc 3521 c8bd 62f8 d43d
00000130: 1b43 f9bd 9d6a 73bd 9e4f 89bc 584c 8e3c
00000140: 4696 79bd b42d 3abd d748 9abd 506d 9e3c
00000150: 2565 a73b 3f9f dbbc 00bd 79ba 84ba 8e3d
00000160: 3650 efbd 6aa8 b7bd 6314 abbd 1296 5a3d
00000170: f042 043d 6987 e13d 845b ba3d c0f9 a5bd
00000180: 1bd9 bb3d 1358 b4bd 0dfb 773d 3e7b ecbd
00000190: e72b 333d d4a8 6dbd 5678 d83c a0ab d3bd
000001a0: f9c2 c7bd b2f4 25bd 402b 953b 98e8 fcbc
000001b0: b02b fb3c b06b b43c 17e3 f3bd 35a2 05be
000001c0: b316 f13d a227 e43d 3e68 af3d 29ea 0bbe
000001d0: 0086 1cba 86aa 3cbd 40d1 44bb 1e5a 0a3e
000001e0: 063c 01be 73be 82bd ea87 cfbd ec24 603d
000001f0: fed1 a13d ac95 293d f699 b03d 70e5 97bc
00000200: 9b1b de3d c8e8 1a3d a3ed 163e 60c7 0d3d
00000210: 370e 8abd e8f5 50bd 9ecc f8bc be90 52bd
00000220: 6ea6 f53a 0204 27bc 10c3 543d f487 673d
00000230: 4e15 e73d 60d1 c93b 0ba5 0a3e 0d02 89bd
00000240: b0b0 8a3c 9494 673d 83d2 d23a 50ee 0bbe
00000250: e71d b13d d123 8f3d 7efa 9c3d 83fc eebc
00000260: fe94 eabd aa01 f7bd d611 063e 9713 e1bd
00000270: 923c 7ebd afdd 0fbe 292c 953c 4a42 0e3e
00000280: 7d31 5d3d db25 92bd bd41 9a3d ed35 983c
00000290: 2445 b13d a9ed 9d3d b25f 1e3d 54f3 f93b
000002a0: d6ba e83d 6dff 0d3e 14d8 e7bd dcbf 49ba
000002b0: 7f40 a1bd dfe4 933d 8e4c d7bb 00c5 743d
000002c0: 9b55 0e3d 927c cd3d a261 dfbd e6fc 42bd
000002d0: d936 8a3d 33ae 843d 8605 8aba c86a 2c3d
000002e0: f21f 49bd b296 21be bd0d 20bd 3fb8 7dbd
000002f0: a5ee f4bd bf8b 713d 5e18 1dba 2058 80bc
00000300: 6a96 813c 3c6f cf3b 360b 4d3c a34b 00be
00000310: 1c0d d73d e652 1e3e 2537 74bd d2eb cb3d

lstm.bias_hh_l0_reverse f4 [200]
0.13600206 0.058533087 -0.1545346 -0.11754713 -0.08771455 -0.10176893 0.014408588 0.14076938
0.010904415 0.12502484 -0.013755031 0.12828654 0.17339882 0.07368723 -0.027353391 0.12085248
-0.02914528 0.12046735 -0.07098076 -0.029394235 0.00980552 0.13199915 0.07182979 -0.06352679
0.07886827 -0.088630594 0.027378216 0.071281165 0.025294019 -0.008440733 -0.12786333 0.089815326
0.09202949 -0.025409356 -0.06757392 0.03532296 -0.09910352 -0.096698254 0.020831496 0.13757081
-0.015821567 -0.029723806 -0.10293331 0.09948322 0.08879153 0.018490197 -0.07462705 -0.06126057
-0.10782529 -0.04983472 -0.14148913 0.1123468 0.011953731 0.110398166 -0.13630973 -0.0641653
0.016849726 0.013789589 0.025577724 -0.010279306 0.075644135 0.13884698 -0.14752196 0.14946137
-0.0077771163 0.111080356 -0.11871142 0.0072606057 0.13041146 -0.11056097 0.068589345 0.09788862
0.027793476 -0.11962303 0.0049675633 -0.09536165 -0.0012968422 -0.06391928 -0.09611641 -0.04044029
0.009234591 0.07901235 0.037402138 -0.0030073822 0.12253258 -0.10271197 0.11793582 -0.06786881
-0.094088055 -0.011462813 -0.1197823 -0.03232457 -0.052685775 0.030966299 -0.050635636 -0.047316432
0.09603805 -0.064642884 0.16602853 0.029237097 -0.0021200147 0.04357688 0.07874201 -0.079665296
-0.022101244 -0.047505215 0.023790821 -0.09331458 -0.09130159 0.07158171 -0.04798618 0.08346911
0.0982158 -0.032528255 -0.035109386 0.058784906 -0.12937424 -0.010828525 -0.07143286 -0.046090465
0.07835725 0.10710739 -0.08430299 0.10900341 0.06916538 -0.07692964 -0.11148533 -0.06885465
0.10463471 -0.118771814 0.012059552 -0.05258546 0.12666307 0.12659745 -0.0991347 -0.11440695
-0.08061721 0.07953142 -0.07040483 -0.09945598 -0.09333268 0.11809246 0.11965315 0.027585145
-0.11955276 -0.13041031 0.07080268 0.013774924 0.096373804 -0.031496655 0.039830104 -0.112733684
-0.06297814 -0.013503579 0.120445415 -0.032260943 0.11428182 0.0791127 0.076198176 -0.04138392
0.012185179 -0.089863166 -0.06726557 0.047814555 0.021273255 -0.04463686 0.15340541 -0.1107307
-0.09242922 -0.038977433 -0.044029564 -0.053656466 0.14052929 0.09470775 0.006677895 0.044076204
0.111637376 -0.0014291567 0.09713341 0.11169569 0.062391866 -0.10584357 -0.14777675 0.12047781
0.010942668 -0.0986237 -0.1306806 0.0773808 0.11238836 -0.1364367 -0.06385656 0.010991118
0.023558285 -0.12464323 0.06950899 -0.062938444 0.08556914 -0.102643505 -0.07786231 0.05632983
00000000: 2044 0b3e 64c0 6f3d 513e 1ebe 8dbc f0bd
00000010: b0a3 b3bd 3b6c d0bd 0012 6c3c d925 103e
00000020: 6ea8 323c 8306 003e c85c 61bc 8c5d 033e
00000030: 768f 313e 55e9 963d 3814 e0bc 8181 f73d
00000040: 15c2 eebc 96b7 f63d 5c5e 91bd 2ecc f0bc
00000050: 55a7 203c c92a 073e 7f1b 933d 551a 82bd
00000060: b085 a13d f583 b5bd 4848 e03c dcfb 913d
00000070: 6735 cf3c 004b 0abc 9bee 02be 19f1 b73d
00000080: f579 bc3d 4827 d0bc 3264 8abd cfae 103d
00000090: c9f6 cabd bc09 c6bd d0a6 aa3c 5ddf 0c3e
000000a0: 3b9c 81bc 577f f3bc b3ce d2bd dcbd cb3d
000000b0: 55d8 b53d c178 973c 11d6 98bd 5dec 7abd
000000c0: 81d3 dcbd 7e1f 4cbd 87e2 10be 1416 e63d
000000d0: 95d9 433c 6f18 e23d c794 0bbe 1969 83bd
000000e0: 7008 8a3c baed 613c 6088 d13c 896a 28bc
000000f0: 50eb 9a3d e72d 0e3e ff0f 17be 670c 193e
00000100: 2ed7 febb 197e e33d f91e f3bd 60ea ed3b
00000110: 958a 053e ca6d e2bd 9278 8c3d d479 c83d
00000120: 25af e33c ebfc f4bd f1c6 a23b f84c c3bd
00000130: cefa a9ba 1de8 82bd aed8 c4bd b8a4 25bd
00000140: af4c 173c 3ad1 a13d fc32 193d 8017 45bb
00000150: 5cf2 fa3d a75a d2bd 5688 f13d cdfe 8abd
00000160: 3db1 c0bd 86ce 3bbc 6c50 f5bd c566 04bd
00000170: 0acd 57bd 09ad fd3c 5067 4fbd e0ce 41bd
00000180: 99af c43d 7d63 84bd 6203 2a3e a382 ef3c
00000190: f2ef 0abb ac7d 323d 7e43 a13d 8f27 a3bd
000001a0: ab0d b5bc d494 42bd f8e4 c23c b71b bfbd
000001b0: 54fc babd 6e99 923d 288d 44bd daf1 aa3d
000001c0: 5e25 c93d 593c 05bd dcce 0fbd 71c8 703d
000001d0: ae7a 04be 206a 31bc 644b 92bd 5bc9 3cbd
000001e0: c479 a03d 1f5b db3d 0ca7 acbd 2e3d df3d
000001f0: 94a6 8d3d 498d 9dbd 6c52 e4bd ab03 8dbd
00000200: b94a d63d a33e f3bd 6d95 453c da63 57bd
00000210: f7b3 013e c3a2 013e 2207 cbbd 314e eabd
00000220: a31a a5bd 5ee1 a23d 6830 90bd 94af cbbd
00000230: 3425 bfbd 76da f13d b60c f53d 3efa e13c
00000240: 14d8 f4bd 488a 05be ff00 913d 38b0 613c
00000250: a15f c53d a302 01bd e424 233d ebe0 e6bd
00000260: affa 80bd 1e3e 5dbc 16ac f63d 0d24 04bd
00000270: 960c ea3d d705 a23d ca0d 9c3d 2f82 29bd
00000280: 58a4 473c 2e0a b8bd 88c2 89bd 32d9 433d
00000290: 4045 ae3c 24d5 36bd 4f16 1d3e c7c6 e2bd
000002a0: 884b bdbd cda6 1fbd 5858 34bd e2c6 5bbd
000002b0: e9e6 0f3e 23f6 c13d 3ed2 da3b 4089 343d
000002c0: 23a2 e43d 8b52 bbba e2ed c63d b6c0 e43d
000002d0: 9d8e 7f3d 83c4 d8bd ca52 17be 12bd f63d
000002e0: e048 333c 39fb c9bd 23d1 05be d379 9e3d
000002f0: de2b e63d 10b6 0bbe 3ac7 82bd 1714 343c
00000300: 4efd c03c f344 ffbd bb5a 8e3d dfe5 80bd
00000310: e03e af3d c236 d2bd 4676 9fbd 1cba 663d
